…
I1104 15:32:48.514503 24458 net.cpp:294] The NetState phase (0) differed from the phase (1) specified by a rule in layer data
I1104 15:32:48.514513 24458 net.cpp:294] The NetState phase (0) differed from the phase (1) specified by a rule in layer accuracy
I1104 15:32:48.514585 24458 net.cpp:51] Initializing net from parameters: 
name: "AlexNet"
state {
  phase: TRAIN
  level: 0
  stage: ""
}
layer {
  name: "data"
  type: "Data"
  top: "data"
  top: "label"
  include {
    phase: TRAIN
  }
  transform_param {
    mirror: true
    crop_size: 256
    mean_file: "./mean.binaryproto"
  }
  data_param {
    source: "./train_lmdb"
    batch_size: 100
    backend: LMDB
  }
}
layer {
  name: "conv1"
  type: "Convolution"
  bottom: "data"
  top: "conv1"
  param {
    lr_mult: 1
    decay_mult: 1
  }
  param {
    lr_mult: 2
    decay_mult: 0
  }
  convolution_param {
    num_output: 96
    kernel_size: 11
    stride: 4
    weight_filler {
      type: "gaussian"
      std: 0.01
    }
    bias_filler {
      type: "constant"
      value: 0
    }
  }
}
layer {
  name: "relu1"
  type: "ReLU"
  bottom: "conv1"
  top: "conv1"
}
layer {
  name: "pool1"
  type: "Pooling"
  bottom: "conv1"
  top: "pool1"
  pooling_param {
    pool: MAX
    kernel_size: 3
    stride: 2
  }
}
layer {
  name: "conv2"
  type: "Convolution"
  bottom: "pool1"
  top: "conv2"
  param {
    lr_mult: 1
    decay_mult: 1
  }
  param {
    lr_mult: 2
    decay_mult: 0
  }
  convolution_param {
    num_output: 256
    pad: 2
    kernel_size: 5
    group: 2
    weight_filler {
      type: "gaussian"
      std: 0.01
    }
    bias_filler {
      type: "constant"
      value: 0.1
    }
  }
}
layer {
  name: "relu2"
  type: "ReLU"
  bottom: "conv2"
  top: "conv2"
}
layer {
  name: "pool2"
  type: "Pooling"
  bottom: "conv2"
  top: "pool2"
  pooling_param {
    pool: MAX
    kernel_size: 3
    stride: 2
  }
}
layer {
  name: "conv3"
  type: "Convolution"
  bottom: "pool2"
  top: "conv3"
  param {
    lr_mult: 1
    decay_mult: 1
  }
  param {
    lr_mult: 2
    decay_mult: 0
  }
  convolution_param {
    num_output: 384
    pad: 1
    kernel_size: 3
    weight_filler {
      type: "gaussian"
      std: 0.01
    }
    bias_filler {
      type: "constant"
      value: 0
    }
  }
}
layer {
  name: "relu3"
  type: "ReLU"
  bottom: "conv3"
  top: "conv3"
}
layer {
  name: "pool5"
  type: "Pooling"
  bottom: "conv3"
  top: "pool5"
  pooling_param {
    pool: MAX
    kernel_size: 3
    stride: 2
  }
}
layer {
  name: "fc7"
  type: "InnerProduct"
  bottom: "pool5"
  top: "fc7"
  param {
    lr_mult: 1
    decay_mult: 1
  }
  param {
    lr_mult: 2
    decay_mult: 0
  }
  inner_product_param {
    num_output: 10
    weight_filler {
      type: "gaussian"
      std: 0.01
    }
    bias_filler {
      type: "constant"
      value: 0
    }
  }
}
layer {
  name: "loss"
  type: "SoftmaxWithLoss"
  bottom: "fc7"
  bottom: "label"
  top: "loss"
}
I1104 15:32:48.514642 24458 layer_factory.hpp:77] Creating layer data
I1104 15:32:48.514719 24458 db_lmdb.cpp:35] Opened lmdb ./train_lmdb
I1104 15:32:48.514741 24458 net.cpp:84] Creating Layer data
I1104 15:32:48.514751 24458 net.cpp:380] data -> data
I1104 15:32:48.514770 24458 net.cpp:380] data -> label
I1104 15:32:48.514782 24458 data_transformer.cpp:25] Loading mean file from: ./mean.binaryproto
I1104 15:32:48.517297 24458 data_layer.cpp:45] output data size: 100,3,256,256
I1104 15:32:48.601227 24458 net.cpp:122] Setting up data
I1104 15:32:48.601248 24458 net.cpp:129] Top shape: 100 3 256 256 (19660800)
I1104 15:32:48.601253 24458 net.cpp:129] Top shape: 100 (100)
I1104 15:32:48.601271 24458 net.cpp:137] Memory required for data: 78643600
I1104 15:32:48.601284 24458 layer_factory.hpp:77] Creating layer conv1
I1104 15:32:48.601300 24458 net.cpp:84] Creating Layer conv1
I1104 15:32:48.601306 24458 net.cpp:406] conv1 <- data
I1104 15:32:48.601318 24458 net.cpp:380] conv1 -> conv1
I1104 15:32:49.469837 24458 net.cpp:122] Setting up conv1
I1104 15:32:49.469859 24458 net.cpp:129] Top shape: 100 96 62 62 (36902400)
I1104 15:32:49.469862 24458 net.cpp:137] Memory required for data: 226253200
I1104 15:32:49.469883 24458 layer_factory.hpp:77] Creating layer relu1
I1104 15:32:49.469894 24458 net.cpp:84] Creating Layer relu1
I1104 15:32:49.469899 24458 net.cpp:406] relu1 <- conv1
I1104 15:32:49.469905 24458 net.cpp:367] relu1 -> conv1 (in-place)
I1104 15:32:49.470051 24458 net.cpp:122] Setting up relu1
I1104 15:32:49.470057 24458 net.cpp:129] Top shape: 100 96 62 62 (36902400)
I1104 15:32:49.470060 24458 net.cpp:137] Memory required for data: 373862800
I1104 15:32:49.470064 24458 layer_factory.hpp:77] Creating layer pool1
I1104 15:32:49.470069 24458 net.cpp:84] Creating Layer pool1
I1104 15:32:49.470074 24458 net.cpp:406] pool1 <- conv1
I1104 15:32:49.470079 24458 net.cpp:380] pool1 -> pool1
I1104 15:32:49.470118 24458 net.cpp:122] Setting up pool1
I1104 15:32:49.470124 24458 net.cpp:129] Top shape: 100 96 31 31 (9225600)
I1104 15:32:49.470126 24458 net.cpp:137] Memory required for data: 410765200
I1104 15:32:49.470130 24458 layer_factory.hpp:77] Creating layer conv2
I1104 15:32:49.470141 24458 net.cpp:84] Creating Layer conv2
I1104 15:32:49.470144 24458 net.cpp:406] conv2 <- pool1
I1104 15:32:49.470149 24458 net.cpp:380] conv2 -> conv2
I1104 15:32:49.474069 24458 net.cpp:122] Setting up conv2
I1104 15:32:49.474081 24458 net.cpp:129] Top shape: 100 256 31 31 (24601600)
I1104 15:32:49.474083 24458 net.cpp:137] Memory required for data: 509171600
I1104 15:32:49.474092 24458 layer_factory.hpp:77] Creating layer relu2
I1104 15:32:49.474099 24458 net.cpp:84] Creating Layer relu2
I1104 15:32:49.474103 24458 net.cpp:406] relu2 <- conv2
I1104 15:32:49.474109 24458 net.cpp:367] relu2 -> conv2 (in-place)
I1104 15:32:49.474243 24458 net.cpp:122] Setting up relu2
I1104 15:32:49.474251 24458 net.cpp:129] Top shape: 100 256 31 31 (24601600)
I1104 15:32:49.474254 24458 net.cpp:137] Memory required for data: 607578000
I1104 15:32:49.474257 24458 layer_factory.hpp:77] Creating layer pool2
I1104 15:32:49.474263 24458 net.cpp:84] Creating Layer pool2
I1104 15:32:49.474268 24458 net.cpp:406] pool2 <- conv2
I1104 15:32:49.474273 24458 net.cpp:380] pool2 -> pool2
I1104 15:32:49.474304 24458 net.cpp:122] Setting up pool2
I1104 15:32:49.474310 24458 net.cpp:129] Top shape: 100 256 15 15 (5760000)
I1104 15:32:49.474314 24458 net.cpp:137] Memory required for data: 630618000
I1104 15:32:49.474318 24458 layer_factory.hpp:77] Creating layer conv3
I1104 15:32:49.474326 24458 net.cpp:84] Creating Layer conv3
I1104 15:32:49.474329 24458 net.cpp:406] conv3 <- pool2
I1104 15:32:49.474335 24458 net.cpp:380] conv3 -> conv3
I1104 15:32:49.482108 24458 net.cpp:122] Setting up conv3
I1104 15:32:49.482120 24458 net.cpp:129] Top shape: 100 384 15 15 (8640000)
I1104 15:32:49.482122 24458 net.cpp:137] Memory required for data: 665178000
I1104 15:32:49.482133 24458 layer_factory.hpp:77] Creating layer relu3
I1104 15:32:49.482141 24458 net.cpp:84] Creating Layer relu3
I1104 15:32:49.482146 24458 net.cpp:406] relu3 <- conv3
I1104 15:32:49.482151 24458 net.cpp:367] relu3 -> conv3 (in-place)
I1104 15:32:49.482472 24458 net.cpp:122] Setting up relu3
I1104 15:32:49.482482 24458 net.cpp:129] Top shape: 100 384 15 15 (8640000)
I1104 15:32:49.482486 24458 net.cpp:137] Memory required for data: 699738000
I1104 15:32:49.482488 24458 layer_factory.hpp:77] Creating layer pool5
I1104 15:32:49.482496 24458 net.cpp:84] Creating Layer pool5
I1104 15:32:49.482501 24458 net.cpp:406] pool5 <- conv3
I1104 15:32:49.482506 24458 net.cpp:380] pool5 -> pool5
I1104 15:32:49.482542 24458 net.cpp:122] Setting up pool5
I1104 15:32:49.482547 24458 net.cpp:129] Top shape: 100 384 7 7 (1881600)
I1104 15:32:49.482559 24458 net.cpp:137] Memory required for data: 707264400
I1104 15:32:49.482563 24458 layer_factory.hpp:77] Creating layer fc7
I1104 15:32:49.482570 24458 net.cpp:84] Creating Layer fc7
I1104 15:32:49.482574 24458 net.cpp:406] fc7 <- pool5
I1104 15:32:49.482579 24458 net.cpp:380] fc7 -> fc7
I1104 15:32:49.484494 24458 net.cpp:122] Setting up fc7
I1104 15:32:49.484504 24458 net.cpp:129] Top shape: 100 10 (1000)
I1104 15:32:49.484508 24458 net.cpp:137] Memory required for data: 707268400
I1104 15:32:49.484514 24458 layer_factory.hpp:77] Creating layer loss
I1104 15:32:49.484521 24458 net.cpp:84] Creating Layer loss
I1104 15:32:49.484525 24458 net.cpp:406] loss <- fc7
I1104 15:32:49.484531 24458 net.cpp:406] loss <- label
I1104 15:32:49.484539 24458 net.cpp:380] loss -> loss
I1104 15:32:49.484550 24458 layer_factory.hpp:77] Creating layer loss
…
I1104 15:32:49.484982 24458 solver.cpp:172] Creating test net (#0) specified by net file: ./train_val.prototxt
I1104 15:32:49.485000 24458 net.cpp:294] The NetState phase (1) differed from the phase (0) specified by a rule in layer data
I1104 15:32:49.485083 24458 net.cpp:51] Initializing net from parameters: 
name: "AlexNet"
state {
  phase: TEST
}
layer {
  name: "data"
  type: "Data"
  top: "data"
  top: "label"
  include {
    phase: TEST
  }
  transform_param {
    mirror: false
    crop_size: 256
    mean_file: "./mean.binaryproto"
  }
  data_param {
    source: "./val_lmdb"
    batch_size: 50
    backend: LMDB
  }
}
layer {
  name: "conv1"
  type: "Convolution"
  bottom: "data"
  top: "conv1"
  param {
    lr_mult: 1
    decay_mult: 1
  }
  param {
    lr_mult: 2
    decay_mult: 0
  }
  convolution_param {
    num_output: 96
    kernel_size: 11
    stride: 4
    weight_filler {
      type: "gaussian"
      std: 0.01
    }
    bias_filler {
      type: "constant"
      value: 0
    }
  }
}
layer {
  name: "relu1"
  type: "ReLU"
  bottom: "conv1"
  top: "conv1"
}
layer {
  name: "pool1"
  type: "Pooling"
  bottom: "conv1"
  top: "pool1"
  pooling_param {
    pool: MAX
    kernel_size: 3
    stride: 2
  }
}
layer {
  name: "conv2"
  type: "Convolution"
  bottom: "pool1"
  top: "conv2"
  param {
    lr_mult: 1
    decay_mult: 1
  }
  param {
    lr_mult: 2
    decay_mult: 0
  }
  convolution_param {
    num_output: 256
    pad: 2
    kernel_size: 5
    group: 2
    weight_filler {
      type: "gaussian"
      std: 0.01
    }
    bias_filler {
      type: "constant"
      value: 0.1
    }
  }
}
layer {
  name: "relu2"
  type: "ReLU"
  bottom: "conv2"
  top: "conv2"
}
layer {
  name: "pool2"
  type: "Pooling"
  bottom: "conv2"
  top: "pool2"
  pooling_param {
    pool: MAX
    kernel_size: 3
    stride: 2
  }
}
layer {
  name: "conv3"
  type: "Convolution"
  bottom: "pool2"
  top: "conv3"
  param {
    lr_mult: 1
    decay_mult: 1
  }
  param {
    lr_mult: 2
    decay_mult: 0
  }
  convolution_param {
    num_output: 384
    pad: 1
    kernel_size: 3
    weight_filler {
      type: "gaussian"
      std: 0.01
    }
    bias_filler {
      type: "constant"
      value: 0
    }
  }
}
layer {
  name: "relu3"
  type: "ReLU"
  bottom: "conv3"
  top: "conv3"
}
layer {
  name: "pool5"
  type: "Pooling"
  bottom: "conv3"
  top: "pool5"
  pooling_param {
    pool: MAX
    kernel_size: 3
    stride: 2
  }
}
layer {
  name: "fc7"
  type: "InnerProduct"
  bottom: "pool5"
  top: "fc7"
  param {
    lr_mult: 1
    decay_mult: 1
  }
  param {
    lr_mult: 2
    decay_mult: 0
  }
  inner_product_param {
    num_output: 10
    weight_filler {
      type: "gaussian"
      std: 0.01
    }
    bias_filler {
      type: "constant"
      value: 0
    }
  }
}
layer {
  name: "accuracy"
  type: "Accuracy"
  bottom: "fc7"
  bottom: "label"
  top: "accuracy"
  include {
    phase: TEST
  }
}
layer {
  name: "loss"
  type: "SoftmaxWithLoss"
  bottom: "fc7"
  bottom: "label"
  top: "loss"
}
I1104 15:32:49.485157 24458 layer_factory.hpp:77] Creating layer data
I1104 15:32:49.485199 24458 db_lmdb.cpp:35] Opened lmdb ./val_lmdb
I1104 15:32:49.485216 24458 net.cpp:84] Creating Layer data
I1104 15:32:49.485222 24458 net.cpp:380] data -> data
I1104 15:32:49.485231 24458 net.cpp:380] data -> label
I1104 15:32:49.485239 24458 data_transformer.cpp:25] Loading mean file from: ./mean.binaryproto
I1104 15:32:49.486325 24458 data_layer.cpp:45] output data size: 50,3,256,256
I1104 15:32:49.529868 24458 net.cpp:122] Setting up data
I1104 15:32:49.529889 24458 net.cpp:129] Top shape: 50 3 256 256 (9830400)
I1104 15:32:49.529894 24458 net.cpp:129] Top shape: 50 (50)
I1104 15:32:49.529897 24458 net.cpp:137] Memory required for data: 39321800
I1104 15:32:49.529902 24458 layer_factory.hpp:77] Creating layer label_data_1_split
I1104 15:32:49.529913 24458 net.cpp:84] Creating Layer label_data_1_split
I1104 15:32:49.529918 24458 net.cpp:406] label_data_1_split <- label
I1104 15:32:49.529925 24458 net.cpp:380] label_data_1_split -> label_data_1_split_0
I1104 15:32:49.529935 24458 net.cpp:380] label_data_1_split -> label_data_1_split_1
I1104 15:32:49.529997 24458 net.cpp:122] Setting up label_data_1_split
I1104 15:32:49.530004 24458 net.cpp:129] Top shape: 50 (50)
I1104 15:32:49.530006 24458 net.cpp:129] Top shape: 50 (50)
I1104 15:32:49.530009 24458 net.cpp:137] Memory required for data: 39322200
I1104 15:32:49.530012 24458 layer_factory.hpp:77] Creating layer conv1
I1104 15:32:49.530025 24458 net.cpp:84] Creating Layer conv1
I1104 15:32:49.530032 24458 net.cpp:406] conv1 <- data
I1104 15:32:49.530037 24458 net.cpp:380] conv1 -> conv1
I1104 15:32:49.534168 24458 net.cpp:122] Setting up conv1
I1104 15:32:49.534178 24458 net.cpp:129] Top shape: 50 96 62 62 (18451200)
I1104 15:32:49.534180 24458 net.cpp:137] Memory required for data: 113127000
I1104 15:32:49.534191 24458 layer_factory.hpp:77] Creating layer relu1
I1104 15:32:49.534198 24458 net.cpp:84] Creating Layer relu1
I1104 15:32:49.534202 24458 net.cpp:406] relu1 <- conv1
I1104 15:32:49.534207 24458 net.cpp:367] relu1 -> conv1 (in-place)
I1104 15:32:49.534353 24458 net.cpp:122] Setting up relu1
I1104 15:32:49.534359 24458 net.cpp:129] Top shape: 50 96 62 62 (18451200)
I1104 15:32:49.534363 24458 net.cpp:137] Memory required for data: 186931800
I1104 15:32:49.534368 24458 layer_factory.hpp:77] Creating layer pool1
I1104 15:32:49.534375 24458 net.cpp:84] Creating Layer pool1
I1104 15:32:49.534379 24458 net.cpp:406] pool1 <- conv1
I1104 15:32:49.534385 24458 net.cpp:380] pool1 -> pool1
I1104 15:32:49.534418 24458 net.cpp:122] Setting up pool1
I1104 15:32:49.534425 24458 net.cpp:129] Top shape: 50 96 31 31 (4612800)
I1104 15:32:49.534427 24458 net.cpp:137] Memory required for data: 205383000
I1104 15:32:49.534431 24458 layer_factory.hpp:77] Creating layer conv2
I1104 15:32:49.534440 24458 net.cpp:84] Creating Layer conv2
I1104 15:32:49.534442 24458 net.cpp:406] conv2 <- pool1
I1104 15:32:49.534457 24458 net.cpp:380] conv2 -> conv2
I1104 15:32:49.538525 24458 net.cpp:122] Setting up conv2
I1104 15:32:49.538538 24458 net.cpp:129] Top shape: 50 256 31 31 (12300800)
I1104 15:32:49.538542 24458 net.cpp:137] Memory required for data: 254586200
I1104 15:32:49.538552 24458 layer_factory.hpp:77] Creating layer relu2
I1104 15:32:49.538559 24458 net.cpp:84] Creating Layer relu2
I1104 15:32:49.538563 24458 net.cpp:406] relu2 <- conv2
I1104 15:32:49.538570 24458 net.cpp:367] relu2 -> conv2 (in-place)
I1104 15:32:49.538919 24458 net.cpp:122] Setting up relu2
I1104 15:32:49.538928 24458 net.cpp:129] Top shape: 50 256 31 31 (12300800)
I1104 15:32:49.538933 24458 net.cpp:137] Memory required for data: 303789400
I1104 15:32:49.538935 24458 layer_factory.hpp:77] Creating layer pool2
I1104 15:32:49.538942 24458 net.cpp:84] Creating Layer pool2
I1104 15:32:49.538946 24458 net.cpp:406] pool2 <- conv2
I1104 15:32:49.538952 24458 net.cpp:380] pool2 -> pool2
I1104 15:32:49.538988 24458 net.cpp:122] Setting up pool2
I1104 15:32:49.538995 24458 net.cpp:129] Top shape: 50 256 15 15 (2880000)
I1104 15:32:49.538998 24458 net.cpp:137] Memory required for data: 315309400
I1104 15:32:49.539002 24458 layer_factory.hpp:77] Creating layer conv3
I1104 15:32:49.539012 24458 net.cpp:84] Creating Layer conv3
I1104 15:32:49.539016 24458 net.cpp:406] conv3 <- pool2
I1104 15:32:49.539023 24458 net.cpp:380] conv3 -> conv3
I1104 15:32:49.546983 24458 net.cpp:122] Setting up conv3
I1104 15:32:49.546999 24458 net.cpp:129] Top shape: 50 384 15 15 (4320000)
I1104 15:32:49.547003 24458 net.cpp:137] Memory required for data: 332589400
I1104 15:32:49.547016 24458 layer_factory.hpp:77] Creating layer relu3
I1104 15:32:49.547024 24458 net.cpp:84] Creating Layer relu3
I1104 15:32:49.547029 24458 net.cpp:406] relu3 <- conv3
I1104 15:32:49.547035 24458 net.cpp:367] relu3 -> conv3 (in-place)
I1104 15:32:49.547176 24458 net.cpp:122] Setting up relu3
I1104 15:32:49.547183 24458 net.cpp:129] Top shape: 50 384 15 15 (4320000)
I1104 15:32:49.547186 24458 net.cpp:137] Memory required for data: 349869400
I1104 15:32:49.547189 24458 layer_factory.hpp:77] Creating layer pool5
I1104 15:32:49.547196 24458 net.cpp:84] Creating Layer pool5
I1104 15:32:49.547200 24458 net.cpp:406] pool5 <- conv3
I1104 15:32:49.547205 24458 net.cpp:380] pool5 -> pool5
I1104 15:32:49.547242 24458 net.cpp:122] Setting up pool5
I1104 15:32:49.547248 24458 net.cpp:129] Top shape: 50 384 7 7 (940800)
I1104 15:32:49.547251 24458 net.cpp:137] Memory required for data: 353632600
I1104 15:32:49.547255 24458 layer_factory.hpp:77] Creating layer fc7
I1104 15:32:49.547261 24458 net.cpp:84] Creating Layer fc7
I1104 15:32:49.547266 24458 net.cpp:406] fc7 <- pool5
I1104 15:32:49.547271 24458 net.cpp:380] fc7 -> fc7
I1104 15:32:49.548663 24458 net.cpp:122] Setting up fc7
I1104 15:32:49.548669 24458 net.cpp:129] Top shape: 50 10 (500)
I1104 15:32:49.548672 24458 net.cpp:137] Memory required for data: 353634600
I1104 15:32:49.548678 24458 layer_factory.hpp:77] Creating layer fc7_fc7_0_split
I1104 15:32:49.548684 24458 net.cpp:84] Creating Layer fc7_fc7_0_split
I1104 15:32:49.548688 24458 net.cpp:406] fc7_fc7_0_split <- fc7
I1104 15:32:49.548696 24458 net.cpp:380] fc7_fc7_0_split -> fc7_fc7_0_split_0
I1104 15:32:49.548702 24458 net.cpp:380] fc7_fc7_0_split -> fc7_fc7_0_split_1
I1104 15:32:49.548732 24458 net.cpp:122] Setting up fc7_fc7_0_split
I1104 15:32:49.548738 24458 net.cpp:129] Top shape: 50 10 (500)
I1104 15:32:49.548743 24458 net.cpp:129] Top shape: 50 10 (500)
I1104 15:32:49.548745 24458 net.cpp:137] Memory required for data: 353638600
I1104 15:32:49.548748 24458 layer_factory.hpp:77] Creating layer accuracy
I1104 15:32:49.548754 24458 net.cpp:84] Creating Layer accuracy
I1104 15:32:49.548758 24458 net.cpp:406] accuracy <- fc7_fc7_0_split_0
I1104 15:32:49.548763 24458 net.cpp:406] accuracy <- label_data_1_split_0
I1104 15:32:49.548768 24458 net.cpp:380] accuracy -> accuracy
…
